epoch60_bs_96_transmodel_conv_supervised_27795_inputdim_32_systematic_sampling_10thousand_encoder.pth (torch, 540968 bytes, 160 tensors)

module.attn_encoder.S f4 [1, 1, 32]
00000000: 49eb 03be c60d cdbd 970b 84be aace 2ebe
00000010: 9368 f2bd acba 11be 7c6b 9dbc 916d 113d
00000020: e60a 20be 07b1 b43d cd9b 4fbe 6274 12bd
00000030: ae78 f13d 68ee 513e d86c 403e 3ad2 17bd
00000040: 6a98 66bd 2bf2 02be 4553 14be a4b1 13be
00000050: f6e6 adbe ad73 c93d 1cc4 97be 81e8 a23e
00000060: 7032 f5bd d0b4 52be e0ae 863e 343f f1bd
00000070: e2c4 8d3e 470f 72be 26fb 86bd 8b4e 943e
-0.12882723 -0.10012393 -0.25790092 -0.17071024 -0.11836352 -0.14231366 -0.019216292 0.03550488
-0.15629157 0.08822828 -0.20274277 -0.035755523 0.11790596 0.20501101 0.1879152 -0.037065722
-0.056297697 -0.12787692 -0.1448489 -0.14423233 -0.33965272 0.098365165 -0.29641807 0.3181801
-0.11972511 -0.20576787 0.26305294 -0.11779633 0.27689272 -0.2363864 -0.065908715 0.28966174

module.attn_encoder.encoder.layers.0.self_attn.linears.0.weight f4 [32, 32]
00000000: b0f4 aebe 1694 e5bc cdc5 89be 24f6 ad3d
00000010: 6af1 593c 2dd8 c23d 6468 aebe 149a febd
00000020: 3ef4 79bd ed6d 9bbd 06a4 c63e 84e1 36bd
00000030: ccd8 973e 305e 9f3d e2f7 773d 9dae 83bd
00000040: f341 dbbd c6e9 25ba f154 99be b523 dbbd
00000050: 3a95 82bd 9d97 dd3d ea54 44be 0f0e 313e
00000060: 2eee 8d3d 9aea 0bbe 75ea b63d e530 46be
00000070: f2d2 c9bc 3014 5cbe efa1 8a3d 0c43 11be
00000080: eb04 833e 1286 203b 5edb d53d 5124 ac3b
00000090: eb88 8c3c 37f0 4fbe 0a11 a63d b2b1 0bbe
000000a0: 2ae7 bebc b822 76be 1621 a03d d20a 31bd
000000b0: ed63 64be 3730 b63d c7cb 383c 0a60 b6bd
000000c0: eeae 0e3e 43c1 1f3e 39d8 8f3d 8d91 7abc
000000d0: 68b6 f23d e6b0 bfbc 1675 9f3c 01ba 38be
000000e0: c711 cabd c002 00bd 66b4 1a3d ef79 1cbe
000000f0: 4022 f2bb 0444 c33d 7fb4 6ebd 3b8e 0dbd
00000100: 24d7 b13d c9e0 9fbd c082 913e ceea 4ebe
00000110: 375d 07be 15fe f8bd 3c12 a63d 46b7 dbbd
00000120: a071 57be 745f 983d 8fb0 973b 4679 fcbc
00000130: e7de adbe 4e1e 1ebc c181 133e 08d5 0dbe
00000140: f30d f8bd 4cb0 9f3b 73df 053d ab7a 2cbd
00000150: d925 14bc b34b 3d3d cc9e 6ebc 866f cbbe
00000160: b412 73bd 3732 313e 983b 1e3d 64be b83c
00000170: 591a 80be 8b6d e7bd ed62 043e 1ae9 45bd
00000180: 16b1 f63d c346 913d cbe5 b23e 6e8a 76bd
00000190: 972e 09be d2c0 403e 5fde 913e 30e9 bb3d
000001a0: 7277 ab3e 0ad5 9f3e 3007 72be 1419 033d
000001b0: adfa 80be 718f 87be bf67 01be 3dc1 203e
000001c0: ce26 c3bb 31ff 273e c81d c13e 3434 fe3e
000001d0: 7184 083e 5e95 0abe 6f6d a63e 3455 2dbd
000001e0: d410 2abc b0a2 953e 0d52 1abd f484 2d3e
000001f0: 6262 2f3e 35a3 123e f22b 63be 48a9 f2bd
00000200: afed a23e f2ed 54bd 215b 3d3e f821 8fbe
00000210: 20ce 523e 15bc 66be 5bc0 25be 11d6 823d
00000220: 5ee3 8cbe 28fc c2bd 9326 0b3e 2940 513e
00000230: d28e 5dbe e8cc 463e e890 e93c 3c5b d8bc
00000240: 4f57 e43d 8b88 6dbe 1eb1 0b3e bbb0 0e3e
00000250: d1ee 5a3c 14fb 7bbe 7ab4 4bbe 9bd7 bfbc
00000260: 4a30 6b3c f69b 803d 5870 62bd 4ade debb
00000270: ab50 c3bb 7918 ffbd 2211 9d3e 8894 823e
00000280: a6ca 043d b46e 0f3e 4f05 07be 6c71 cf3d
00000290: 4c93 4ebe 7fb6 23bb 7fb5 d9bd add7 19be
000002a0: 48ab a43e f0a6 e23d d907 bebb 22d8 50be
000002b0: abf3 a33e caff 413e 6e6a 8b3c f1c5 113e
000002c0: 3772 21bd c50d c63c 6b12 74be 5444 4a3b
000002d0: d320 2cbe c7f4 af3e a193 733d 8b61 823e
000002e0: 7b94 51bd a890 d13c 46dd bf39 54d3 da3c
000002f0: ca98 583e 4509 85bd 0f9a 66bd 0502 1ebe
00000300: 8601 703e 435d bc3d bbfd 8d3e e8b9 31bd
00000310: 4ebd dabd 6e21 163d ad6a 643d 9256 373e
00000320: 4655 3ebe f9f2 903e 1173 7abe 2327 a83d
00000330: a20e 583e a958 c43e 29f0 873b 6558 153e
00000340: 7fcd b5bd 366f eb3d 740d ba3e feae f43d
00000350: 7249 bd3d ce71 d23b fcc2 c4bd 2631 20be
00000360: dafc c23d 8e7a 583e 2d9f 1dbe 7147 f93d
00000370: 69a2 83bd 4545 cdbd 0ca2 803c 0f19 c23e
00000380: f570 ccbd 090b f33d 9ae1 ea3d 8d7c a13e
00000390: fc39 cabe a54a cf3d 8361 413e b3d3 54bd
000003a0: 3fbb 3e3d 892f a03e b748 c3bd a08d dcbd
000003b0: 072c 723e 2538 bcbc 7c80 06be 8e25 373d
000003c0: 64bd a1bd 8234 98bd ed30 043e fc57 b63b
000003d0: 8f75 ad3c bce8 b53d d267 313e 35e3 783e
000003e0: d438 4c3e 2e9e d7bd 0e4c 02be 9492 ca3c
000003f0: a2c5 743e c9ab 763e 6c1f d7bd 2799 183d
-0.34171057 -0.028024714 -0.26908723 0.08494213 0.0133021865 0.095138885 -0.3406402 -0.12431732
-0.061023943 -0.07589326 0.38797015 -0.044648662 0.2965759 0.07781637 0.060539134 -0.06429789
-0.10705938 -0.00063290854 -0.29947618 -0.1070017 -0.06376119 0.108199336 -0.19173017 0.17290519
0.06930195 -0.13663712 0.08931438 -0.1935459 -0.02463672 -0.21492076 0.06769168 -0.14185733
0.2558969 0.0024493975 0.104422316 0.0052533527 0.017155131 -0.20306478 0.08108719 -0.13642004
-0.023303587 -0.24036682 0.07818811 -0.04322321 -0.22303744 0.08895915 0.011279053 -0.08905037
0.13933918 0.15601067 0.07023663 -0.015293491 0.118511975 -0.023399781 0.01946501 -0.18039705
-0.09866672 -0.031252623 0.037769698 -0.15280889 -0.007389337 0.09534457 -0.058277603 -0.03455947
0.08683613 -0.07806546 0.28420067 -0.20206758 -0.13219152 -0.12157837 0.08108947 -0.10728316
-0.21039438 0.07440081 0.0046292017 -0.030819546 -0.33959123 -0.00965078 0.14404966 -0.13850796
-0.121120356 0.004873311 0.0326838 -0.042109173 -0.009042227 0.04621477 -0.014564227 -0.39733523
-0.05934401 0.17304312 0.03863105 0.022551723 -0.25020102 -0.113001905 0.12928362 -0.048318006
0.12045495 0.07093575 0.34940943 -0.06019061 -0.13396679 0.18823555 0.28489968 0.09175336
0.33489567 0.31217223 -0.23635554 0.03200634 -0.2519125 -0.26476625 -0.12637232 0.15698715
-0.0059555536 0.16405942 0.37718034 0.49649203 0.13331772 -0.13533542 0.32505366 -0.042317584
-0.010379989 0.29225683 -0.037675906 0.16945249 0.17127374 0.14320071 -0.22184733 -0.11848694
0.31821963 -0.051984735 0.18491794 -0.27955604 0.20586443 -0.22532685 -0.16186659 0.06388486
-0.27517217 -0.09520751 0.13588934 0.20434631 -0.21636513 0.19414103 0.02851148 -0.026410691
0.11149465 -0.23196618 0.13641784 0.13934605 0.013362602 -0.24607497 -0.19893065 -0.023418238
0.014354775 0.06279747 -0.05528292 -0.0068014013 -0.005960544 -0.1245584 0.30677134 0.25503945
0.032419823 0.14007074 -0.13185619 0.101290554 -0.20173377 -0.0024980602 -0.10630321 -0.1502368
0.32161927 0.11066997 -0.0057992754 -0.20394948 0.3202184 0.18945232 0.017018523 0.14235665
-0.039415564 0.024176488 -0.23835151 0.003086348 -0.16809396 0.34366438 0.05946696 0.25465044
-0.051166993 0.025581673 0.0003659522 0.026712097 0.21152034 -0.06495909 -0.056299265 -0.15430458
0.23438081 0.09197476 0.27732643 -0.043390185 -0.10680638 0.036652975 0.055765796 0.17904118
-0.18587217 0.28310373 -0.24457957 0.0821059 0.21099332 0.38348892 0.0041485024 0.14584501
-0.08877086 0.11495821 0.3633839 0.119474396 0.09242524 0.006422258 -0.09607503 -0.15643749
0.09520884 0.21140501 -0.15392752 0.121718295 -0.06427462 -0.10022978 0.01570227 0.37909743
-0.09982482 0.11867339 0.11468811 0.31540337 -0.39497364 0.10121659 0.18884854 -0.051959705
0.04656529 0.31286266 -0.09535354 -0.107692 0.23649608 -0.02297599 -0.1313495 0.04471355
-0.078974515 -0.0743189 0.12909289 0.005564688 0.02117422 0.08882281 0.1732476 0.24305423
0.19943553 -0.10528217 -0.12724325 0.024728097 0.23903516 0.24088968 -0.1050404 0.037255432

module.attn_encoder.encoder.layers.0.self_attn.linears.0.bias f4 [32]
00000000: b7c1 02bd 16e3 11be 921f 78be e681 2a3e
00000010: e7e3 f03d e432 dcbd e9ca cf3d d7ab 3d3e
00000020: 8352 d83d dea1 20bd 4584 113e 5f5a bf3d
00000030: 9875 05be ecaf 80be 87a4 87be 17f9 91be
00000040: d75a 07be 2ec6 153d 4a98 273e 1dd8 81be
00000050: 452c b2bd a035 d6bc 9548 2fbd 830a 8ebc
00000060: 8f39 33be 94b3 62be 3db1 b63d fd0e fe3d
00000070: 610a 61be 25cc 4f3e 5e0b f4bd c4a1 afbd
-0.031923022 -0.14246783 -0.24230793 0.16651115 0.11762219 -0.10751894 0.10146124 0.18522583
0.10562613 -0.03921687 0.14210613 0.09343409 -0.1303314 -0.25134218 -0.26492712 -0.28510353
-0.13218246 0.036565952 0.16366687 -0.25360194 -0.0869985 -0.026148617 -0.04279383 -0.017338997
-0.17502426 -0.22138816 0.08920524 0.124052025 -0.21976615 0.20292719 -0.119162306 -0.08575776

module.attn_encoder.encoder.layers.0.self_attn.linears.1.weight f4 [32, 32]
00000000: d351 a5bd 6f0c 853d 3385 1bbe c8f7 3abe
00000010: 0da5 8fbe edfb 44be ea9b 9dbe d52a 1b3e
00000020: 5b1f 993e 8282 433e 599a 80be c993 d5bd
00000030: df05 e83d f6b8 a33e c566 3dbe 65d5 243d
00000040: 253f c83d 84ae 02be 325c 8e3d 4c1a a3bd
00000050: f654 94be 141a 40be 16b8 e7bd e25d 493e
00000060: 7bf6 983c 2aa5 c13d 3996 8f3b a549 c4bd
00000070: 97ee 453e d949 863e 9082 423e 962d 53bd
00000080: 2879 343e 26a3 82bd 4726 bf3e 364a dc3d
00000090: 5275 b53a 91d8 05be 8bde a33e fad0 55be
000000a0: 07e0 48bd 79ff 8abe 9435 293d 325d f13c
000000b0: 7815 183e 4c81 143e 0ae5 b2bd 10ef d1bc
000000c0: 3d26 9f3e 037f 88be 3f19 a03e c61d 763e
000000d0: bc70 883d d997 96bd d2b9 f83d e296 4ebe
000000e0: 81d7 46be fcbf 50be 36f7 f8bd d236 f1bc
000000f0: f92b 3d3e de14 033e 5a5c a63e 7191 37be
00000100: 8b9b 173e 5c46 99ba ea18 ff3e f0b1 c9bd
00000110: 8186 4ebe ee37 c1bd 4c67 f03d ff61 9abd
00000120: 142a 87be 7fbd 913d 0761 183e 7b26 49be
00000130: 8345 97bc fadf dc3d f53d 6e3d d6d0 9ebd
00000140: 2b04 6ebd ed24 21be 4ee7 4e3e a393 153e
00000150: cda9 e03a d5ea 96bd 1177 bfbb 3ae6 e1be
00000160: d322 4cbd 1e1f ca3d 515d 06bd 0732 07bd
00000170: ab76 1bbe acae 58be 8448 713e 9b6a d5bd
00000180: 4a82 fbbd 4236 f1bb 2fbb ec3d e0d3 383e
00000190: 6fef 153e d1fd 943e eebc e53d 96d7 49be
000001a0: 0e06 74bd 1c6a 2bbc 7381 e03e 3de9 b1bd
000001b0: ab36 afbd 8aa9 9abe adad fa3d b05e b8bd
000001c0: 0e64 1cbe 07b6 f83d 53f4 743d e20c 3a3e
000001d0: 8653 a83e 190e 223d 169c 6d3d 5464 8cbd
000001e0: a5da c73d d4e6 eb3b 28be 903d 7d2c 13be
000001f0: 7b9e fdbd 7390 b3be b435 9bbe 98e3 4dbe
00000200: b1fe 333e 788a 173e 58f6 7c3d eafc c8bc
00000210: 3c4d 2b3e e33b 45bd 99a1 6ebe 8201 bc3d
00000220: 7624 2d3e 222e 1b3d 1ecf 5b3d b3cb a7bc
00000230: 9009 39be 8a23 cc3e ea69 dabc f3ef 36be
00000240: 98f7 053e 89ec debd 044a 6a3d b682 4d3c
00000250: 23b1 a53d ebd2 8ebd 715d 8bbe 1ba9 533e
00000260: ffb4 043d f2e9 3c3e 8cdb c63d 179f b3bd
00000270: f798 90bd ca0f 473d 9c97 ed3d 9f31 4d3e
00000280: 4c67 2bbd a41b dcbd be35 933d dd61 073e
00000290: 832b 59be 5aab 49be 1ca1 b13d 85c0 2abe
000002a0: 193b d33c 1826 363d ad77 fbbc c027 9d3c
000002b0: 755b 863e 4dde 703c 49c1 b33d 5aa3 9e3e
000002c0: 86d6 25be 82b9 d3bd f405 5ebe 5625 0f3e
000002d0: 0295 26be f9cf 023e 83d8 5e3e 2ca3 8c3d
000002e0: fdd8 58bd 2594 3abe 6c3f f0bd 55bc 0f3e
000002f0: 930d 8d3e 2309 79be 03dd 783d c618 61be
00000300: 09fa c03d 1f23 633e d2e7 6c3d 4270 593d
00000310: 3ea5 f23d 4391 b3bc 5f03 87be 1727 963d
00000320: 7f1c 0a3c 66f7 543e ece0 c73b 78fa a9bd
00000330: 903c 943e a48c b23e 5b3b 803e 1228 57be
00000340: 2ba7 8cbd b27f 85bd 5b22 253e 6951 acbe
00000350: 77c4 533d 82fc 713e dc1a afbe 0aa7 f7bd
00000360: cfb5 5e3d 6575 3d3d 2776 ec3d b3f5 5dbe
00000370: 5549 35be d33a b6bd 4e3b d3bd b748 783e
00000380: 33af 32be d594 633d 1538 adbd f5c9 553e
00000390: 264e 1bbe 02e1 28be a91d 2a3e a595 57be
000003a0: 72ec 80be d902 c83d 05f4 fd3d c96c 83be
000003b0: 906d a23e d03e 853d 9a59 783e 0157 5dbc
000003c0: c5b3 30be 6c5f 8fbd 610e 1cbe 35ca 35be
000003d0: 987e c13d 1ab4 19be 8e4b 883e 5cc0 ce3d
000003e0: 9482 cf3c 8c3f 6cbe 856f 5a3d c9d6 66be
000003f0: df0e c23d 70f7 a13d 2bb2 18be 87f7 fdbd
-0.08072247 0.06496512 -0.1518753 -0.18258584 -0.2805561 -0.19236727 -0.30783015 0.15153058
0.29906735 0.19092754 -0.25117758 -0.104285784 0.11329245 0.31977051 -0.18496235 0.04024257
0.09777669 -0.12761885 0.069511786 -0.07964 -0.2897107 -0.18759948 -0.113144085 0.1966472
0.018672219 0.09455331 0.0043819216 -0.09584359 0.19329296 0.26228216 0.18995118 -0.051557146
0.17624342 -0.06378774 0.3733389 0.10756342 0.0013844168 -0.13070895 0.32005724 -0.208805
-0.049041774 -0.27148035 0.04131086 0.029463384 0.1485194 0.14502448 -0.08735092 -0.02562669
0.3108386 -0.26659402 0.3126926 0.24034795 0.066621274 -0.073531814 0.121448174 -0.20174745
-0.19418146 -0.20385736 -0.12156527 -0.029445086 0.18473805 0.12800929 0.32492334 -0.17926575
0.14805429 -0.0011693942 0.49823695 -0.09848392 -0.20168497 -0.09434496 0.11738452 -0.075382225
-0.2639929 0.07116222 0.14880763 -0.19643585 -0.018465763 0.10784908 0.058164556 -0.07754676
-0.058109444 -0.15736742 0.20205423 0.146071 0.0017140448 -0.073690094 -0.0058430512 -0.4412096
-0.0498379 0.098692164 -0.032803837 -0.033006694 -0.15181987 -0.21160382 0.23562819 -0.10420724
-0.1228071 -0.0073612044 0.1155914 0.18049574 0.14642118 0.29099897 0.11217676 -0.19711146
-0.059576087 -0.01046231 0.43848762 -0.08687065 -0.08555349 -0.30207473 0.12240157 -0.09002435
-0.15272543 0.12144094 0.05980332 0.18168977 0.32876223 0.039564226 0.058010183 -0.068550736
0.097585 0.0071991477 0.070675194 -0.1437244 -0.123837434 -0.35071144 -0.3031441 -0.20106351
0.17577626 0.14798915 0.06175837 -0.024534661 0.16728681 -0.048152816 -0.23303832 0.09179975
0.1690844 0.037885793 0.05366432 -0.020482874 -0.18070054 0.39870864 -0.026661832 -0.17864971
0.13082731 -0.10884959 0.057199493 0.012543371 0.08090427 -0.06973823 -0.27219728 0.20669977
0.032399174 0.18448618 0.09709844 -0.08770578 -0.07060426 0.048599042 0.11601183 0.2003846
-0.04184656 -0.107474595 0.07187985 0.13220926 -0.21208005 -0.19694272 0.08673307 -0.16675003
0.025785016 0.044469923 -0.030696714 0.019183993 0.2624165 0.014701438 0.087771006 0.30984002
-0.16195115 -0.10338117 -0.21681958 0.13979086 -0.1626778 0.12774648 0.2176228 0.0686706
-0.05294131 -0.18220575 -0.11730847 0.14036687 0.2754942 -0.24319892 0.06075765 -0.21982107
0.094226904 0.22181366 0.05783827 0.053085573 0.11847924 -0.021919852 -0.2636976 0.073316745
0.008429646 0.207975 0.006099811 -0.08299726 0.28952456 0.34872925 0.25045285 -0.2101138
-0.06867822 -0.065184966 0.16126387 -0.3365586 0.051701035 0.2363148 -0.3420018 -0.12092407
0.054372605 0.046254534 0.11545973 -0.21675758 -0.17703755 -0.088979386 -0.10314046 0.24246489
-0.17449646 0.05556186 -0.084579624 0.20877822 -0.1516653 -0.16492084 0.16612877 -0.21053179
-0.25180393 0.09766168 0.12400059 -0.25668934 0.31724215 0.06506121 0.2425293 -0.013509513
-0.17256077 -0.07000622 -0.1523986 -0.17752917 0.09447974 -0.1501011 0.26620144 0.100952834
0.02533082 -0.23071116 0.05332901 -0.22542872 0.09475493 0.07908523 -0.14911716 -0.12400728

module.attn_encoder.encoder.layers.0.self_attn.linears.1.bias f4 [32]
00000000: 1a07 5d3c 6cd8 ad3e b5d4 db3c b483 68bb
00000010: cb10 85be 196a 933e c57e 15bf 2758 7cbd
00000020: c45d 2b3d f90d 98be 9347 843e 8de1 91be
00000030: b0bb 423e 695f a43d 0af7 a5bd 7a64 acbd
00000040: c02f a13e 6b05 173f 90fc c3be d6eb 4c3e
00000050: f32e 1dbf f797 c7be bd83 983e c967 483e
00000060: 6690 77be d193 c63d 1b72 adbd 2b04 0d3e
00000070: 062a 8f3e da79 f9bd 0611 4abe bc9a 8cbe
0.013490463 0.3395418 0.026834825 -0.0035478892 -0.25989375 0.28791884 -0.5839656 -0.061607506
0.04183747 -0.2969816 0.25835857 -0.28492394 0.1901691 0.080260105 -0.081037596 -0.08417602
0.31481743 0.5899264 -0.38278627 0.2001184 -0.61399764 -0.38983127 0.29788008 0.19570841
-0.24176177 0.096961625 -0.084690295 0.13771121 0.2796175 -0.121814445 -0.19733056 -0.27461803

module.attn_encoder.encoder.layers.0.self_attn.linears.2.weight f4 [32, 32]
00000000: 54ff 04bf c8e3 c7be 49e2 953e 6e8c 9a3e
00000010: 6393 eeba 3af0 043e d24b 1fbc 2b25 82be
00000020: bf0e 6a3e b770 a4be 9edf 653e 2128 e93e
00000030: 7bb1 853e 76ac 1eba b3f6 f53d 0845 d43e
00000040: d5ad 8c3e 2662 71be 67e3 d5bd e641 ee3c
00000050: 8a24 81be 9aa2 d2bd 2099 fdbd aa85 98bd
00000060: 8294 48be f045 babe d1ac bf3d 20bc bb3e
00000070: 6221 e73e 5310 b4bd b04e ba3e d3f7 a3be
00000080: 7377 d13e 9151 383e a160 03be 2ee5 d0be
00000090: 2b87 ab39 1dcd 87bd aeec 593e 7fc9 8c3d
000000a0: 97b5 3fbe 998e 4a3e aaf1 17be bde9 18be
000000b0: be35 d7be f478 213e c1ce 5cbe 43df d9be
000000c0: cd19 1dbe f0d6 b33e dcde ef3c 85fa cf3e
000000d0: d6ae 163e 0732 e33d 9c82 4e3e bd5e c7bd
000000e0: 8928 61bc ac4b ae3e 849c 11be ea15 0ebe
000000f0: 08ab acbe 73ae fbbc 2f16 f0bd e386 b8bc
00000100: 5c66 e3be 2d29 f3be a6f2 313f 75d9 e93e
00000110: 2f89 fe3d c56d b3bd 2035 dd3c af8d 2bbf
00000120: 4f21 2e3d 9587 c3be ee72 033f 1cef cc3e
00000130: 1871 0c3e 7fc7 4fbe cb71 273f 6e36 9d3e
00000140: 2d84 ab3e de08 adbe 7907 e4bd 817b f5be
00000150: c7fc 64be 7de8 71bc 9809 d1bc a02a 0dbf
00000160: 6e05 fdbe 3313 14bf 61e6 043f 7001 963e
00000170: 0732 7c3e 0fb4 84bd 2d65 fc3e 39d1 e3be
00000180: f771 543e 2c01 263e cf8c 973d dedd 93be
00000190: d62f 943d c436 c0bd 89a2 fdbc 5bc2 31bd
000001a0: 3e2b 00bd 5444 9a3e 9cd4 873d c05d 6cbe
000001b0: 8441 c2be c1b3 e4bd cb96 ce3b 223a 31be
000001c0: 2066 77be b200 e03d 6d56 893e 5190 603e
000001d0: d384 df3d 95b2 65be 3707 073d 19a5 56be
000001e0: c3ab 06bd 4714 a03e 5181 8f3e 305b 86be
000001f0: b6f9 84be a0e1 57bd 5e25 21be d5e6 64bd
00000200: bb9d b6be dbda f1be b2c2 a53e ee1e f23e
00000210: e9ec a2be 501d 8fbd b993 923e 9f23 863e
00000220: e30a fa3e 0cd8 06bf f990 1ebe abb8 ef3e
00000230: 3e91 d2bd 990f bfbe fa1b 4cbe 44ef e23e
00000240: b12d f73e fdba d1be 28ef ffbd a799 b13e
00000250: 77ad a9be f3c8 43be c106 e63e 643c 6e3e
00000260: 2af0 26be e713 a7be 5d74 b6be c2b4 e03e
00000270: 4cea 063f 51db af3e ecc2 eb3e 5ce6 dbbe
00000280: e2ce b6be c5bd 88be e781 a23e cfbb ff3e
00000290: da52 6dbe 852c 56be 20ef bebd b81e 9abe
000002a0: f679 263f b4dc 05bf eeb3 31bc 7601 803e
000002b0: 77fc 0a3f 132a 21be 6d6c 793e 250c 3c3f
000002c0: cc27 e33e 3361 07bf 335e fbbd 8129 60be
000002d0: c374 26bf a88c e3bc ecaa 653e 35e4 3c3e
000002e0: 99f2 e8be 35dc 31bf 1d3e 3e3e 328b 903e
000002f0: a738 493f 66b2 933e 57a1 013f 9e36 07bf
00000300: a04b d4be 1e0b d9be e250 af3e 58e5 f73e
00000310: 7879 8bbe b4ad 0bbd 95ef 733e c05e 9f3e
00000320: 1e4d c63e e36e 98be 63b6 8abe 796e f03e
00000330: 7822 bc3d 6f90 8bbe 9d81 eabc 9dcb 063f
00000340: 913f ae3e b7fe 8ebe 8036 0c3d 96aa 333e
00000350: 0cdb bfbe 5420 dfbd b775 853e d999 d3bd
00000360: 427c c1be 1a63 d3be f5c9 7ebe 87c5 e13e
00000370: b66d f43e e794 453e 6158 953e 20b3 9ebe
00000380: 4878 25bf 1552 3cbe ff70 a23e 607e 353f
00000390: 3086 5fbe faa1 00be ce4b 133e 821e a8be
000003a0: 73c7 d33e d42e acbe 3cdf a03d aec1 893e
000003b0: 86db ea3e ebfd 91be 81a3 943e be4b 9d3e
000003c0: 8005 a13e 0db5 f6be 85b0 16be d8ba 8ebe
000003d0: 20e8 dabe e173 c9bd 9e74 043e af98 ef3d
000003e0: 91ef c0be 837f 4dbf 5514 2d3e 525b 8a3e
000003f0: 9061 203f 8a88 d33e bd84 8f3e 96de cbbe
-0.519521 -0.3904097 0.29274204 0.30185264 -0.0018201884 0.12982264 -0.009722667 -0.25418982
0.22857188 -0.32117245 0.22448584 0.45538428 0.2611197 -0.00060529204 0.12009945 0.41458917
0.27476373 -0.23572597 -0.10443764 0.029084157 -0.2522319 -0.1028492 -0.12382722 -0.074473694
-0.19587901 -0.36381483 0.09359134 0.36666965 0.45142657 -0.08792176 0.3638816 -0.32025012
0.40911445 0.17999865 -0.1282983 -0.4079985 0.0003271637 -0.06630919 0.21281692 0.0687437
-0.18721615 0.19780959 -0.14838281 -0.14932914 -0.4203319 0.15768796 -0.21563245 -0.42553148
-0.15341873 0.35124922 0.029281072 0.4062082 0.14715132 0.11093526 0.20167011 -0.09734867
-0.0137425745 0.34042108 -0.14219862 -0.13875547 -0.33724236 -0.030722832 -0.11722981 -0.022525256
-0.44414032 -0.47492352 0.6951088 0.4567372 0.124285094 -0.08761171 0.027002871 -0.67013067
0.042512234 -0.38189378 0.51347244 0.40026176 0.13715017 -0.20290945 0.6540801 0.3070559
0.3349928 -0.33795828 -0.11134238 -0.47945789 -0.22362052 -0.014764902 -0.02551727 -0.55143166
-0.49418205 -0.57841796 0.5191403 0.29297972 0.24628459 -0.06479656 0.4929594 -0.44495562
0.20746599 0.16211385 0.07399904 -0.2888021 0.072356865 -0.09385446 -0.030961292 -0.043398242
-0.03129124 0.30130255 0.06632349 -0.23082638 -0.3794061 -0.11167098 0.006304597 -0.17307332
-0.24160051 0.109376326 0.2682375 0.21930052 0.10914006 -0.22431405 0.032965865 -0.20961417
-0.03287865 0.3126547 0.28028348 -0.26241446 -0.25971764 -0.052705407 -0.1573691 -0.0558842
-0.35667214 -0.47237286 0.32375103 0.47289222 -0.31821373 -0.06988013 0.28628328 0.26199052
0.4883643 -0.5267341 -0.1548499 0.46820578 -0.10281609 -0.37316588 -0.19932547 0.4432317
0.48277047 -0.40962973 -0.12496787 0.3468754 -0.33140156 -0.19119625 0.44927028 0.23265225
-0.16302553 -0.32632372 -0.35635653 0.43887907 0.5270126 0.34347013 0.4604715 -0.42949188
-0.35704714 -0.26707283 0.31739733 0.49947974 -0.23176137 -0.2091542 -0.09322953 -0.30101562
0.6502985 -0.5228989 -0.010846121 0.25001115 0.5429148 -0.15738706 0.24357767 0.7345603
0.443663 -0.5288269 -0.122738265 -0.21890832 -0.65021914 -0.027777031 0.22428483 0.18446429
-0.45497587 -0.69476634 0.18578382 0.28231198 0.7860207 0.28847045 0.5063681 -0.52817714
-0.41463947 -0.42391294 0.34241396 0.48417163 -0.2724111 -0.034101203 0.23821862 0.31126976
0.3873071 -0.297721 -0.27092275 0.46959284 0.09186262 -0.27258632 -0.028626258 0.5265444
0.34032872 -0.27928707 0.034231663 0.17545542 -0.37471807 -0.10894838 0.26066372 -0.103320785
-0.37790114 -0.41286546 -0.24881728 0.44096014 0.47739953 0.19295083 0.2916899 -0.30996037
-0.6463666 -0.18390687 0.31726834 0.7089596 -0.21828532 -0.12561789 0.14384386 -0.32835776
0.41363105 -0.33629477 0.078550786 0.26905578 0.45870608 -0.28514037 0.29030994 0.3072185
0.3144951 -0.48185006 -0.14715774 -0.27876925 -0.42755222 -0.09836555 0.12935111 0.11699044
-0.37682775 -0.8027269 0.16902287 0.27022797 0.6264887 0.4131511 0.2803096 -0.39818257

module.attn_encoder.encoder.layers.0.self_attn.linears.2.bias f4 [32]
00000000: cea2 b7be eba6 9a3e 0d5c 29bf 2748 ad3e
00000010: 3dbc f3be d142 0cbf 7a04 0fbf dd2f fbbe
00000020: 6d2b bdbe 9024 1ebf 81d4 083f 665c 1a3e
00000030: b6ab 173f 892d e9be 1dab 76bd a2dd a2bd
00000040: 2d2f 8cbe 9adb c93d d024 b5be cf06 0ebf
00000050: 9898 68be 5c25 f8bd f21a db3e f3d8 d73c
00000060: 8ec4 213e 524d 29bf b434 193f 086c 773e
00000070: e492 bf3e c5d8 e1be 723a c73e 6c54 b23e
-0.35866398 0.30205473 -0.66156083 0.3384411 -0.47604552 -0.54789454 -0.55866206 -0.49059954
-0.36947194 -0.6177454 0.53449255 0.1507431 0.59246385 -0.45542553 -0.06022178 -0.07952429
-0.27379742 0.09856339 -0.35379648 -0.5547914 -0.2271446 -0.12116501 0.42793995 0.026348567
0.15797636 -0.66133606 0.59846044 0.24162304 0.37416756 -0.44110695 0.38911778 0.34830034

module.attn_encoder.encoder.layers.0.self_attn.linears.3.weight f4 [32, 32]
00000000: e814 59bd e0bf 18be 1ce8 ae3e ea94 21bd
00000010: ca74 2dbe eb3a 8b3d fac5 34be 8ea7 293d
00000020: 571a 323e 144d 95bc 3cce e63d 2eb0 a6be
00000030: 30b0 323c 8e06 623e a7e7 ab3c f012 fdbc
00000040: 1699 4bbe f48a 333e 1b1c 5e3e b7dd a83d
00000050: 9003 0b3e 3657 22be 8b2e 36be fe0f e9bd
00000060: fb9d a7bd fc15 9b3e c8e2 1fbe 91e6 3f3d
00000070: 251b 2a3d 07c4 1ebd 42b1 0c3d 53e5 1dbe
00000080: 5477 953d 2ca5 ffbd b222 6dbd 737f 7a3c
00000090: 1caf f33d 8040 99bd e9bb 413e b191 0dbe
000000a0: 0e79 0f3d 06cc f5bd a0b5 af39 37f4 293e
000000b0: 797d 6dbd dd24 cfbc 3cff d5bd 56f5 2fbe
000000c0: 3de8 0a3e 0cf8 3e3e 639d 233e b901 e93d
000000d0: dcce d0bd 4bd1 1e3e 9517 533e cde1 123e
000000e0: 05a6 8dbd 347d 52be a58c 653d 0ab4 92bd
000000f0: 1327 903c 4b89 b63d db6c b43d 5933 23be
00000100: e693 87bd 856e 11be 1722 603e ba4b 9f3c
00000110: d2bd eabe 0a73 b3bd c086 aabe 6a54 1abe
00000120: b8c4 afbe b792 24be ade8 c53e 6e8e 72bf
00000130: a2e9 06be f7df ec3d 717d bd3e 88f8 c6be
00000140: 63d5 87be accc e23e f77d 293e ee2a 0ebe
00000150: dc63 d83d 405d a5bc 4f48 6a3c 47f7 acbe
00000160: 51e8 1abf ad0d 6d3e f8d4 13be 6444 da3e
00000170: 1176 94bc 4375 3dbd 8ced 613e 790d 953e
00000180: 20fe dabd 26a2 0c3e 9161 ecbd 349f 67bc
00000190: 8baa 143d 6fe4 043e b928 b3bc 13bc 2ebd
000001a0: 0dd5 b73d 85b8 273e 20d3 3b3d 194f 103e
000001b0: c629 bebd 3f34 67be b0f4 bbbd c4fa cb3b
000001c0: c845 f63c 6a33 1bbd eda2 393c b07b 083e
000001d0: f422 c3bd 7d79 183d 295c ff3d d216 8b3d
000001e0: 3e83 25bb 50c6 c3bd fb30 893e 1a64 36be
000001f0: c8c4 2abd 68db 1d3d 4e42 24be 9749 3fbd
00000200: f4c2 ac3e ab71 a6be 53ed 3e3e 08f9 d3bd
00000210: 970f 643d 3d58 1b3e 0e0f 00bc dbf4 a33e
00000220: a5e2 ca3d ca46 a5ba 266b 31bd 61f0 47bd
00000230: 36d4 eebe a936 dd3e 5b74 4dbd d627 a0bc
00000240: de5f 9b3c 6f92 933e b628 ea3d 208b 393e
00000250: 6707 423e c75d c6bd 66bb a3be 9dc1 b23d
00000260: 691f d6bd c0ed b63e 78c6 bbbe e24a e23d
00000270: e1c4 06be b63a 513e 1316 ae3c e4f2 dd3d
00000280: 6ec0 8a3e 3e13 43bc cd6e 123e cdbf 10be
00000290: 1cc3 f63d 9b31 283d 35b9 133e 9735 8f3d
000002a0: 29ee 2b3e 7ca5 3b3e df38 43be ccfe 0a3e
000002b0: b806 a43c 513c 963e 063d d1bc 611e aa3e
000002c0: 0c62 d83d 34d7 74be c587 c8be 1cf2 553e
000002d0: 6fbb 46be 4941 623e 4b86 2ebe 0987 6a3e
000002e0: 2b00 3e3e 194d 393e 408b 9abd 2582 89be
000002f0: ab1f abbc 5917 92ba b92d 3abe 4e12 c7be
00000300: 641d 043e b044 40be d21d dc3e ec09 b33d
00000310: d624 ed3d 6bf6 dd3d 2f58 53bb f7d9 533e
00000320: a56a d23d 5b5a e93d 4a84 93bd a9d0 acbe
00000330: b355 923d 7b9a 933e 5e09 be3e 73b6 10be
00000340: 597c 1bbe e81c 7cbd 3621 ab3e 5616 fd3c
00000350: 7eda a73e b63f 7cbe 0387 c3be 6560 06bf
00000360: fceb 00bf 262f b23e e2e6 a5be 581f 243e
00000370: c7a1 0fbe d851 ec3d ff13 65bd 1bf9 a03d
00000380: 0a1b 233e a213 f6bd 1b6d 133f 3bba 3c3d
00000390: fb91 553e c9e7 8c3e c8a6 fc3e 5049 953e
000003a0: 3733 b83e 2f94 023f c27c 8abe 42f7 84be
000003b0: 20f1 05be e57f 3b3e 51ed 1c3e adf8 6dbd
000003c0: 6024 b33c 85b0 a3be f1ad b63e 0764 123e
000003d0: 530a 843e 6b3e 3abe 0abb 03bf c729 a9be
000003e0: f35a 95be 3405 c23e f0cf febe e686 99be
000003f0: b36b 5cbe d68e 133f e898 c7be 7ee2 c8be
-0.052998453 -0.14916945 0.3416146 -0.039448656 -0.16939083 0.06798347 -0.17653647 0.04141956
0.1739286 -0.01822523 0.11269805 -0.3255629 0.010906264 0.22072813 0.020984484 -0.03089282
-0.19882616 0.17533475 0.21690409 0.08245414 0.13575578 -0.15853581 -0.17791192 -0.113800034
-0.08184429 0.3029021 -0.15613854 0.046850745 0.041529793 -0.038761165 0.034348734 -0.15419511
0.07298151 -0.12482676 -0.057894416 0.015289175 0.11898634 -0.074830055 0.18919338 -0.13825108
0.035027556 -0.12001805 0.00033513922 0.16597067 -0.05798099 -0.025286132 -0.10449073 -0.17183432
0.13565154 0.1864931 0.15978007 0.11377282 -0.10195705 0.15509526 0.20614465 0.14343949
-0.06916431 -0.20555574 0.056042332 -0.07163246 0.017596757 0.08912905 0.08809825 -0.15937556
-0.06620006 -0.14202316 0.21888004 0.019445289 -0.45847946 -0.08762176 -0.3330593 -0.15071264
-0.34329772 -0.16071592 0.3865408 -0.9474858 -0.13175061 0.115661554 0.37009767 -0.3886149
-0.2652999 0.44296777 0.16551958 -0.13883564 0.10565922 -0.020186067 0.014299466 -0.33782408
-0.60510737 0.23149748 -0.1443671 0.42630303 -0.018122705 -0.046254408 0.22063273 0.2911184
-0.10693002 0.1373373 -0.11542047 -0.014137078 0.036295455 0.12977766 -0.021870004 -0.04265983
0.08976183 0.16378982 0.04585564 0.14092673 -0.092853114 -0.22578524 -0.0917753 0.006224962
0.030062571 -0.03789083 0.011330348 0.13328433 -0.09528151 0.037225235 0.1246875 0.06791462
-0.0025255228 -0.095593095 0.26795182 -0.17811623 -0.04169157 0.03853932 -0.16040918 -0.04670104
0.33742487 -0.32508597 0.1864522 -0.10350233 0.05567893 0.15170379 -0.007816089 0.32022747
0.0990651 -0.0012609598 -0.043315075 -0.048813228 -0.4664628 0.43205765 -0.050159793 -0.019550245
0.018966611 0.28822657 0.11433546 0.18119478 0.18948136 -0.09685855 -0.3197891 0.08728335
-0.1045521 0.35728264 -0.36674857 0.11049439 -0.13161041 0.20432553 0.02125076 0.10837343
0.27099937 -0.011906443 0.1430008 -0.14135666 0.12048933 0.041062932 0.1442612 0.06992643
0.1679007 0.18324846 -0.19064663 0.1357376 0.020022735 0.29342893 -0.025541794 0.33226302
0.10565576 -0.23910218 -0.39166084 0.20893139 -0.19407438 0.22095217 -0.17043416 0.22903074
0.18554752 0.18095817 -0.07546091 -0.26857105 -0.020889124 -0.0011145874 -0.18181504 -0.38881153
0.12901837 -0.18776202 0.429915 0.08742127 0.115792915 0.10838016 -0.0032248606 0.20688616
0.10274247 0.11394187 -0.072029665 -0.33752945 0.07145252 0.28828797 0.37116522 -0.14132099
-0.15184154 -0.061551005 0.33423775 0.03089444 0.32783884 -0.24633679 -0.38188943 -0.52490836
-0.50360084 0.34801596 -0.32402712 0.16027582 -0.14026557 0.11539048 -0.055927273 0.07860013
0.15928283 -0.120154634 0.57588357 0.04607604 0.20856468 0.27520588 0.49345994 0.29157495
0.35976574 0.5100736 -0.27048308 -0.25969893 -0.13080263 0.18310507 0.15324904 -0.058098484
0.02186793 -0.3197061 0.35679582 0.1429597 0.25789127 -0.18187873 -0.51457274 -0.33039686
-0.2917095 0.37894595 -0.4976802 -0.29985732 -0.21525459 0.57639825 -0.38983846 -0.392353

module.attn_encoder.encoder.layers.0.self_attn.linears.3.bias f4 [32]
00000000: 5045 dabd 7a55 7bbb f5ed 21be 16df 383e
00000010: 9540 92be cca7 32bd d43e 85be 4282 b3be
00000020: 23db 9e3e 2a13 9bbe edff 923e 0a6b 1bbd
00000030: f958 a83e 5754 9e3d 136c 02be e0d5 2a3e
00000040: db50 993e 9cdf 19be a3c6 bcbc 09be 5cbe
00000050: 9747 81be 0baf 9b3e 1f86 ffbe 4ae4 6e3e
00000060: cbf5 a3be d6b2 97be c408 393e b47d a3bd
00000070: 8977 a93e dd46 d63d 66de 563c 4f79 90bc
-0.106577516 -0.0038350509 -0.1581343 0.1805385 -0.28564897 -0.043617055 -0.26024497 -0.35060316
0.31026563 -0.3028806 0.2871088 -0.037943877 0.3288038 0.0773093 -0.1273654 0.1668315
0.299445 -0.15026706 -0.023043936 -0.21556868 -0.2524993 0.30406985 -0.49907014 0.23329273
-0.32023463 -0.29628628 0.1806975 -0.0798296 0.3309901 0.10462735 0.013114547 -0.01763597

module.attn_encoder.encoder.layers.0.feed_forward.w_1.weight f4 [128, 32]
00000000: 04f6 833e d639 a13e 7aa6 a3bc 3661 50be
00000010: 7965 d53e 3e61 11be 6be0 8fbe bbd5 8ebd
00000020: 30cf a5be 1144 fc3e 495b 5d3e a7ad f9be
00000030: 05b1 bcbd 6550 a63e 30d7 3c3e ae90 d9be
00000040: b0e0 2fbe 46c6 843e 0710 ae3e daa4 82be
00000050: 6ad4 d53e a675 79be 513e 76be 4896 65be
00000060: 5b05 8d3e e9e6 c83e 16d8 823e b5e0 abbd
00000070: 68d5 56be 8db5 e9be 46c8 aebe 2d28 883e
00000080: acac 7c3d 7125 95bd 6274 7b3e 4823 3a3e
00000090: a122 8dbd ed32 b8bd 6236 d4bd 5a76 aabd
000000a0: 4114 493e c977 873b 21f2 a13c b4d6 273d
000000b0: 5f5e 39be 7e67 0bbe f24d 96bd 22d7 30be
000000c0: d58d 1a3d 62b7 463e 0231 52bc c471 143e
000000d0: a47a 2dbe ca35 81bc 5bc2 533e d7a0 053e
000000e0: c64b 93bd 8139 613c c5c1 ae3d d198 2c3e
000000f0: 81a4 64bd 738f ad3c f113 463e 196c 8fbd
00000100: 75be 8b3e f3c2 63be 4213 70be 1c23 cabe
00000110: 47d2 41bf 0283 28bd 5970 a53e e495 f43e
00000120: 72db 03bf f45d 3a3f 99cd b0be b33d dbbe
00000130: 34de 2e3f a536 3c3e d1be 76bf 6dd6 bb3d
00000140: 8cc3 04bd 8e2f 2fbe fa8a b03e a533 9c3e
00000150: 9ab5 f73e 69b4 093e 436a abbe 5bb3 133f
00000160: b68a 513f f4ea c43e 2694 20bf ba38 7ebe
00000170: 6728 a23e 3f94 fe3c 713d 71be 7008 24bc
00000180: 3977 163f b52b ea3e 79e6 98be 1715 6ebe
00000190: 3ac6 b93e 198a 2abd 1f67 0cbe b56f 19be
000001a0: 5940 f5be ce8c 003f be56 d2bc 70c3 86be
000001b0: ba46 79be e664 963e 5504 d13d 011d 0fbf
000001c0: 8111 ebbe c9f5 a03e d72f 8e3e b49a 66be
000001d0: 98fd d93e cd32 23be d473 17be d4e1 63be
000001e0: 5a47 0d3e 1de2 f73d ef32 0f3e 7917 58be
000001f0: f5b9 56bd 9290 80be 8739 bdbe 7fc3 df3e
00000200: e326 a03e 931a e33d b25b 69bf 6cd0 2fbf
00000210: f06e edbe 65df fc3e 0359 ad3e 5c2f 983f
00000220: 90f3 33bf 6489 753f 2699 6cbf c4da 7bbf
00000230: 0aa5 76bc b72f 9cbe b8ce 95bf a4a3 1fbf
00000240: 9205 4cbf 9e70 d13e 7601 733f 82c0 a63f
00000250: 3f7b d43e f4df 7abe b5b3 023f 93cf 2e3f
00000260: 9381 553f 847c 9c3f 22b2 98bf 0c05 b8be
00000270: f6f5 28bf 322f debd 4c25 7bbf 1c2e 943e
00000280: fab1 2b3f b97f d53e c811 0abe 5009 c6be
00000290: b4e6 263e e017 babe 6d28 9dbe 3372 21bd
000002a0: 4c6b 0bbe 4f75 b63e 1e96 b13d 5201 cebe
000002b0: 0477 c7be e35a 6a3d bd71 533e 528c 05bf
000002c0: 6a69 9bbe 4091 c93e 7eeb 903e 4d71 363b
000002d0: 13ba 873e 12a4 02bf 629c 3ebe 87ce 9fbe
000002e0: 7b1d b33e 940d b13e ed27 743e 391f c7be
000002f0: 6210 0cbf b62d cebe 2271 14be 1b41 263f
00000300: 9501 cd3d d4db c43d 7e69 ccbd 9a22 793e
00000310: 8a47 02be 2fe1 50be af4f 833c 1108 953d
00000320: 2565 3f3e 8f90 57be 376b d93d d5e5 fa3d
00000330: d5c1 19be 0b2f 55be 1430 193d 6d94 aabc
00000340: 1e74 d03d 3a09 01bd 230b eabd 9719 18bc
00000350: 41dd cdbc 01a8 4abd 8ab3 4e3d 7734 a63d
00000360: 549c ccbd 483a 3bbd 633b cbbd 3426 a23d
00000370: 770a 043e d454 f93d 20ee 2ebd 60cc 16be
00000380: 7653 0dbd 0991 1c3e 4b42 6abe cb8e 21be
00000390: 1ea5 d7be 75bb 373d d839 263e c14b 7f3e
000003a0: c740 1fbf 6a2c a43d 7cf4 d53d a749 99be
000003b0: 0e12 843e 81fe 2c3e e3a5 8ebe 9acf 9abe
000003c0: 2aeb b6be 4a32 1e3c 1b6b 5bbb 86fa 5a3e
000003d0: 550f a73e 832a 333e 67ac 85be 711f 0d3f
000003e0: 7743 e63e 7877 8a3e 1cbb b8be ad21 c9be
000003f0: 905b f83d b539 b1be e802 a5be 77ed 163d
0.25773633 0.31489438 -0.019976843 -0.20349583 0.4167898 -0.14197251 -0.28100905 -0.069743596
-0.32384634 0.4927068 0.21616854 -0.487653 -0.09213451 0.3248321 0.18441463 -0.42493194
-0.17175555 0.2593252 0.33996603 -0.25516397 0.41763622 -0.24361286 -0.2404721 -0.22420609
0.27543148 0.3923867 0.25555485 -0.08392469 -0.20979846 -0.45646325 -0.34137172 0.26593152
0.06168811 -0.07282532 0.24556115 0.18177521 -0.068913706 -0.08994088 -0.10361935 -0.08323355
0.19636633 0.0041341526 0.019768776 0.04097624 -0.18102406 -0.13613698 -0.07339086 -0.17269567
0.037732918 0.19405892 -0.012829067 0.14496523 -0.16941315 -0.015772719 0.2067961 0.13049637
-0.07192187 0.01374662 0.08533052 0.1685517 -0.055820946 0.021186566 0.19343545 -0.0700304
0.27293745 -0.22242336 -0.23444846 -0.3947991 -0.7571148 -0.041140564 0.32312277 0.47770607
-0.5150672 0.7279961 -0.3453186 -0.4282051 0.68307805 0.1838022 -0.9638491 0.09171758
-0.03241305 -0.17107984 0.3448103 0.30508152 0.48380738 0.13447727 -0.3347951 0.5769555
0.8185228 0.38460505 -0.62726057 -0.24826327 0.3167145 0.031076549 -0.23558594 -0.010011777
0.5877567 0.4573647 -0.29863337 -0.23250233 0.36284047 -0.041635606 -0.13711213 -0.14984019
-0.47900656 0.5021485 -0.025676128 -0.26320982 -0.24343386 0.29373854 0.102059044 -0.5590363
-0.45911792 0.3143752 0.27770874 -0.22519952 0.4257629 -0.15937348 -0.14790279 -0.22254115
0.1379675 0.121036746 0.13984273 -0.21102704 -0.052423436 -0.25110298 -0.36957952 0.4370384
0.31279668 0.11089053 -0.9115554 -0.686774 -0.463737 0.49389187 0.33856973 1.1889453
-0.7029352 0.95912766 -0.92421186 -0.98380685 -0.015053997 -0.30505154 -1.170371 -0.6235907
-0.79696 0.40906233 0.94924104 1.3027499 0.4150028 -0.24499494 0.5105546 0.68285483
0.8340084 1.2225499 -1.1929362 -0.3594135 -0.66000307 -0.108488455 -0.98103786 0.2894143
0.67068446 0.41699007 -0.13483346 -0.3867898 0.16298944 -0.3634634 -0.30694905 -0.03941555
-0.1361515 0.35636374 0.08671211 -0.40235382 -0.3895799 0.057215583 0.20648856 -0.52167237
-0.30353862 0.3936863 0.28304666 0.0027838529 0.2650915 -0.510316 -0.18614343 -0.31212255
0.3498343 0.34580672 0.23843355 -0.38891008 -0.547125 -0.4026925 -0.14496282 0.64943093
0.100100674 0.096122414 -0.099810585 0.24329606 -0.12722602 -0.203984 0.016029207 0.07276929
0.18690927 -0.21051238 0.10616153 0.12250868 -0.15015347 -0.20818727 0.037399366 -0.020822728
0.101783976 -0.03150294 -0.114279054 -0.009283445 -0.025129916 -0.049476627 0.05046419 0.081154756
-0.09990755 -0.04570988 -0.099234365 0.07917443 0.12894617 0.12174383 -0.042707562 -0.147264
-0.034503423 0.15289702 -0.22876851 -0.15777127 -0.42118162 0.044856507 0.16233003 0.24931242
-0.6220822 0.08016284 0.10447022 -0.29939005 0.25795025 0.1689396 -0.27860937 -0.30236512
-0.3572629 0.0096555445 -0.0033480588 0.2138463 0.32628885 0.17496686 -0.26108095 0.551261
0.44973347 0.27044272 -0.36080253 -0.39283505 0.12126839 -0.3461434 -0.3222878 0.036847558

module.attn_encoder.encoder.layers.0.feed_forward.w_1.bias f4 [128]
00000000: 799a e43d 7448 62be fc74 623f 47b3 493e
00000010: 9f12 723f a184 cc3d b26d 58be 7989 093f
00000020: ff23 f53e 5ac9 a23e 004d 96bc 8113 493f
00000030: 4c9a 723e f0a9 36be ea88 233e 2174 9d3e
00000040: 3d0a 7e3d 2f45 173f ae66 753f 7a2b f03e
00000050: 5243 9a3e 63cb 713e fef0 2abe f108 6b3e
00000060: 5133 343f b05d 233e 9555 693e 358f 143e
00000070: a5fa 003e 754c 623f ee52 493e ccf9 b63d
00000080: d18e 3e3f 38ed 243f 9199 ce3d c66b 7b3d
00000090: 96dc 113e 00ae a03e 44c9 923e 665f ebbd
000000a0: 314d ef3d 6f63 023f 4319 713f 7194 093f
000000b0: ab3d a53c 6190 a03e 143d b03e 61a3 f83e
000000c0: 7090 913e 32e0 fb3e 310e 803c 1faa 343f
000000d0: fdd3 9d3e dd54 913e a23d 6a3e 7a76 833f
000000e0: 9c5d 30be 515a 593f 1904 813e 4ae2 76bd
000000f0: 0daf 1f3e b530 983e 9284 413e c694 0a3f
00000100: 49fc 423f 1394 fb3e a358 f43e 6bc3 10be
00000110: fa27 243f 5007 253f 4516 183e 48dd 95bd
00000120: ba67 243f fcc5 3cbd ecfc 823f 5f51 6d3f
00000130: ff80 2f3e a1dd 223f 9531 ce3e 69ae dd3e
00000140: 6945 6b3d 582d 423f ae30 d13d 14d8 363e
00000150: aad2 bb3e ad30 103e 8969 ba3c 6c55 863d
00000160: d40f 2e3f aadf fc3e cd3f 613e 2ac4 303f
00000170: 09fa 963e a671 b73d 57e7 173e cee2 ce3d
00000180: 1e88 233e 7e85 c93e 3dea 343f 7ae2 333f
00000190: 5e1e c83e b700 9d3d 9a4f b83d bba4 f73e
000001a0: f319 e23e ca3c 803e 5458 943e d691 bd3e
000001b0: b845 403f cb08 e83d 62b6 0c3e bf72 e63e
000001c0: 735d a83d 2432 a23e 04fb 0a3e 3725 1d3e
000001d0: 34e8 2e3f 3780 103f 6e95 263e eed9 983e
000001e0: 887f 3b3e 7721 ab3e 1126 b53e 3e6d c13d
000001f0: 5b4a c93d 1eb0 213f d9f5 353f 5b23 8d3e
0.11162276 -0.22097951 0.88459754 0.19697295 0.94559664 0.099862345 -0.21135595 0.5372539
0.47879025 0.31794244 -0.018347263 0.78545386 0.23691672 -0.17838264 0.15970197 0.30752662
0.062021483 0.5908994 0.958598 0.4690817 0.30129486 0.23612742 -0.16693494 0.2295263
0.703908 0.15953708 0.22786553 0.14507754 0.12595613 0.88397914 0.19660541 0.08934364
0.7443667 0.6442447 0.10087884 0.061382078 0.14244303 0.3138275 0.28669178 -0.11492805
0.11684645 0.50932974 0.9417917 0.5374213 0.020171007 0.31360152 0.344216 0.48562148
0.2843051 0.49194485 0.015631767 0.70572084 0.30825797 0.28385058 0.22875074 1.0270531
-0.17223209 0.84903437 0.2519844 -0.0602744 0.1559412 0.2972466 0.18898228 0.5413326
0.76166207 0.4913641 0.47723874 -0.14137046 0.641235 0.64464283 0.14852245 -0.07317597
0.64220774 -0.04608725 1.0233436 0.9270229 0.17139052 0.6361943 0.40272203 0.43297127
0.05743924 0.7585044 0.10214363 0.17855865 0.3668416 0.14081068 0.022755401 0.06559262
0.679929 0.49389392 0.21996994 0.6904932 0.29487637 0.089572236 0.14834343 0.10101853
0.15969893 0.3935966 0.7066992 0.7026745 0.39085668 0.07666152 0.08999558 0.48367867
0.44160423 0.25046378 0.2897364 0.37025326 0.7510638 0.11329802 0.13741449 0.4500942
0.08220949 0.3167888 0.13572317 0.15346228 0.68323064 0.5644564 0.1626794 0.29853767
0.18310368 0.3342397 0.35380605 0.094446644 0.09828635 0.6315936 0.7107826 0.27566037

module.attn_encoder.encoder.layers.0.feed_forward.w_2.weight f4 [32, 128]
00000000: 1db0 e63d 75dd 073c b836 a3be 93f6 223e
00000010: c037 39bf 5a5e 28be 02ae ecbc 67c3 57be
00000020: e8bc 98be 1c8b 0bbe d7d6 143e 276f 20bf
00000030: d0be 95be 8771 34be 8c76 c13d 30a7 b8bd
00000040: b2c6 d7bd 4254 a7be 61ee bcbf 2964 0cbf
00000050: 7402 a43d 392f 62bd 747b 93bb cb53 43be
00000060: cea7 12bf 78d9 94bd 39d2 cfbc a0b8 023e
00000070: 3191 263d 3d6b 2fbf 320b 8bbe b4a2 883c
00000080: a6be 3bbf 145d 21bf 11e7 cebc b22b 02be
00000090: ce1b 2abe 7579 333c ab99 fabd eaf0 f8bd
000000a0: 62a5 c7bd ba2d 76bf 3c1e 3abf 38e2 19bf
000000b0: c2db 04be f0e7 84be b3a2 05bf 28b6 27bf
000000c0: 1361 9ebd 86f5 30bf 9275 2e3d 06f5 18bf
000000d0: f47b 08be abb0 813d 3d99 c9bc add3 c5be
000000e0: 0b61 82bd c71a 15bf e582 f43c d7ec 97be
000000f0: b18d 1fbd bd16 553d 85e2 47bd 98a3 73bf
00000100: f304 5ebf 2028 15bf f101 acbe eae9 cf3b
00000110: fc12 b4be a171 46bf 0a5f d53c 30ce ab3c
00000120: 2a0f 9fbf 1caf a1bd 18af 22bf cfce 53bf
00000130: 76e5 a6bd c423 b4be c332 87bf 2694 52be
00000140: daf9 0bbe 02ae 73bf 0199 f83d b9f1 36be
00000150: 4207 e2be 8e0b 19bc caee 7ebe b1fa 9fbd
00000160: fb03 7dbf c09d 5fbf 03ec 093e 585e 1ebf
00000170: bdfa 56be d0bb e8bc 452c 38be 538f 9bbd
00000180: 9cbe 0a3e c7c4 d6be 4880 81bf 2902 7fbf
00000190: 5d62 b6be a93e 89bd 2dfd debd 3cb3 1bbf
000001a0: 951c 8fbe e968 16bd 8d9e 7d3d cef2 83be
000001b0: 1a90 7ebf 61a4 a3bd 4907 8dbc 0659 54bf
000001c0: 0df8 1fbe d02a 17be f878 fdbd 9b77 40bd
000001d0: 62f6 13bf fe5d 54bf 259b 86bd ae1e 413d
000001e0: b547 b3bd 4761 9d3d e881 bfbe 7f1c d03c
000001f0: 28eb 003e 23f3 e5be b24a bebe c90c d83d
00000200: c77c efbc d177 01be f075 8b3e 596c bbbc
00000210: 402e ca3e f553 7cbd 4171 b5bd 6d24 663d
00000220: 9c64 4b3f 2d8e cabd 027e 7b3a ceda d23e
00000230: 4b93 2b3e 5abd c7bd ff17 383e ef24 b6bd
00000240: ae3f 7c3d cfa0 c13e bbdc 243f 3e8c 503f
00000250: 3c44 21be 496c 343c 68ee cc3c 5950 9bbd
00000260: 258f 8a3e c0f3 2fbc b8c6 8e3d bfbe bf3d
00000270: e39d 223d 2d8e c93e 9dd0 973e 3c2d 703e
00000280: 90cf e93e 54ee c63e aa23 17be 6a1e dfbd
00000290: f5f1 04bc b21a d7bd 6bf9 48bd ea27 12be
000002a0: 0da8 a7bd 0a9f d73e 89e7 103f 0f72 d33e
000002b0: 7235 4bbe db8c 073d 44f5 873e 1c8d 9f3e
000002c0: fbc6 18be fde3 963e d36e 9abd 194a 013f
000002d0: 5c96 ac3c 8744 bc3d 69dd 50be af5f 973e
000002e0: 0c7e 6fbd da54 023f 0f32 d43d 8bc5 5f3e
000002f0: 02d7 b8bd f0fe 04bc 1a53 29bc 14c8 1e3f
00000300: 326b d03e 2092 923e 79f4 893e 923e cabd
00000310: 1738 873e e12a f43e 9076 05be dd11 f7bd
00000320: f42f 893f b09e 9c3d 1e04 323f 7cc4 d43e
00000330: 4e2f 41bd b42f e13e 9197 d13e 1dd7 273d
00000340: da46 3fbd 4118 cc3e 6951 383d 51cc 05be
00000350: 2b40 bb3d 8c96 243e 1de7 c33d 658f 8dbd
00000360: d248 143f 29b1 d73e befd acbd 5511 f63e
00000370: 67c5 cf3c b9d0 acbd 45c2 8e3e b407 fbbd
00000380: 3b82 0dbe 911b 35bc e2f3 b63e 9d73 f03e
00000390: 82aa a53d 7f61 9cbc e2e8 4dbe 32fe 953e
000003a0: 0376 923e 777f 38be b609 493e 714b e53d
000003b0: f08c 083f fc6f 48be 7f21 b2bd 7f27 0e3f
000003c0: 1d6f d83d e997 d7bd 8743 0ebe 195c 1ebd
000003d0: c336 333f 6c73 063f df8f 393d 79ca f43c
000003e0: fdcd 3bbe 7490 80bd dc3a 6e3d ce60 35be
000003f0: 2bc8 a2be 71d5 cd3e c636 c43e bfbc 0bbe
0.1126406 0.008292546 -0.31877685 0.15914373 -0.7235069 -0.16442242 -0.028891567 -0.21070634
-0.29831624 -0.13627285 0.1453508 -0.62669605 -0.2924714 -0.17621432 0.09446439 -0.090162635
-0.10535945 -0.3268147 -1.4760247 -0.5484033 0.080082804 -0.055220816 -0.0045008007 -0.19074933
-0.572873 -0.07268041 -0.025368797 0.12765741 0.04066581 -0.6852301 -0.2715698 0.016679145
-0.7333778 -0.6303265 -0.025256665 -0.12711981 -0.16612169 0.010954251 -0.12236341 -0.12155326
-0.09748341 -0.96163523 -0.72702384 -0.6011081 -0.12974456 -0.25958204 -0.52201384 -0.65512323
-0.07733359 -0.6912464 0.042592593 -0.59748876 -0.13328534 0.06332525 -0.024609203 -0.38638058
-0.06366166 -0.58243984 0.029847572 -0.29672882 -0.038953487 0.052023638 -0.04880001 -0.951715
-0.867263 -0.5826435 -0.3359523 0.0063450234 -0.35170734 -0.77517134 0.026046295 0.020972341
-1.2426503 -0.078947276 -0.6354842 -0.8273744 -0.08149235 -0.35183537 -1.0562366 -0.20564327
-0.1366953 -0.9518739 0.12138558 -0.17865647 -0.44146162 -0.009341134 -0.24895778 -0.078114875
-0.988342 -0.8735008 0.13468938 -0.6186271 -0.20994087 -0.028409868 -0.17985637 -0.07595696
0.13549274 -0.41947004 -1.0117273 -0.9961267 -0.3562192 -0.067014046 -0.10888133 -0.60820365
-0.27951494 -0.036721144 0.061918784 -0.25771183 -0.9943863 -0.07990337 -0.017215388 -0.8294834
-0.15621968 -0.14762425 -0.123765886 -0.046989065 -0.57797825 -0.8295592 -0.0657256 0.0471484
-0.087539114 0.0768457 -0.37403798 0.025404213 0.12589705 -0.4491206 -0.37166363 0.105493136
-0.029234303 -0.12643363 0.27238417 -0.022878813 0.3948841 -0.061603505 -0.08859492 0.056187082
0.7945039 -0.09890399 0.0009593667 0.4118256 0.16755407 -0.09752913 0.17977904 -0.08893763
0.061584167 0.37818 0.6439931 0.8146399 -0.15748686 0.011012145 0.025016025 -0.075836845
0.27062336 -0.010739267 0.06971496 0.09362554 0.039701354 0.39366284 0.29651347 0.23454756
0.4566617 0.38853705 -0.14759699 -0.10894473 -0.008114328 -0.105031386 -0.04906599 -0.14273039
-0.0818635 0.42113525 0.56603295 0.41297957 -0.19844607 0.033093315 0.2655431 0.31162345
-0.14919655 0.29470816 -0.07540669 0.5050369 0.02106779 0.09192758 -0.20396961 0.29565188
-0.058469817 0.50910723 0.103611104 0.218527 -0.090253845 -0.008117422 -0.010334754 0.62024045
0.40706784 0.2862711 0.2694433 -0.098752156 0.2640998 0.47688964 -0.13033509 -0.12063954
1.0717759 0.07647455 0.6953753 0.41556156 -0.047164254 0.43981707 0.40935948 0.040976632
-0.04669843 0.39862254 0.044999514 -0.13066222 0.091430984 0.16073054 0.09565566 -0.06912116
0.57923615 0.4212735 -0.08446835 0.48060098 0.025362683 -0.08438248 0.2788259 -0.12257329
-0.1381921 -0.011053936 0.35732943 0.46963206 0.080891624 -0.019089459 -0.20108369 0.29295498
0.2860566 -0.18017374 0.1963261 0.1119603 0.53340054 -0.19573969 -0.08697795 0.55529016
0.10568068 -0.105270214 -0.13892947 -0.03866205 0.70005435 0.5251987 0.04530322 0.029881703
-0.18340297 -0.06277552 0.0581616 -0.1771271 -0.3179334 0.40201905 0.3832304 -0.1364622

module.attn_encoder.encoder.layers.0.feed_forward.w_2.bias f4 [32]
00000000: a3d7 16be 87fd 943d 70d5 62be dd5c c6bc
00000010: a699 21be 2725 25be 4f5d b5be 1fc2 89be
00000020: d8e7 bf3e 49ed 01bd dc4b b23e 7b0c 773d
00000030: 7ea5 9a3d da3e 5f3e 23d6 febd 4dc4 953e
00000040: 55ae e03e 71e8 96be ad7c 29bc 3778 89be
00000050: 2f93 3ebc 1e95 8e3e 025c fcbe e1a0 303e
00000060: 1631 75be fe44 e9bd 7a9a d53d 85d2 0cbe
00000070: 2109 b93e 042a 223e e7c6 83bd 4a07 343d
-0.14730696 0.07274919 -0.22151732 -0.024214203 -0.15781268 -0.16127454 -0.3542275 -0.26905915
0.3748157 -0.031720433 0.348235 0.060314637 0.075510964 0.2180132 -0.12443187 0.29251328
0.43883005 -0.29474214 -0.010344666 -0.2684953 -0.011631771 0.27848142 -0.49288946 0.1724887
-0.23944506 -0.11390112 0.10429855 -0.13752182 0.36139777 0.1583634 -0.06434422 0.043952264

module.attn_encoder.encoder.layers.0.sublayer.0.norm.a_2 f4 [32]
00000000: 17b6 8a3f fb30 953f 679a 933f ba3f 973f
00000010: e9a6 a93f 165b 873f aa44 813f dc7e b33f
00000020: ede2 a23f 2d02 963f 35a2 b03f 8614 a13f
00000030: bb10 8b3f c2ef a63f 9139 bc3f 580b ac3f
00000040: cbcd 9e3f ba93 993f c048 8d3f fa49 ba3f
00000050: 60ef a43f 0cf9 883f 966e a33f f364 a13f
00000060: a525 8e3f 1d78 bb3f 6e78 b63f f9bc a83f
00000070: 630c c93f 4ac1 a53f fadb a23f de83 993f
1.083682 1.1655573 1.1531495 1.1816323 1.3254062 1.0574672 1.009908 1.402309
1.2725502 1.1719414 1.3799502 1.2584388 1.0864481 1.3041918 1.4705068 1.3440962
1.2406553 1.1998208 1.1037827 1.4553826 1.2885551 1.0701003 1.2768123 1.2608932
1.1105238 1.4646031 1.4255502 1.318267 1.5706905 1.2949612 1.2723382 1.1993368

module.attn_encoder.encoder.layers.0.sublayer.0.norm.b_2 f4 [32]
00000000: aac8 c33e b710 f73e bd9a edbe 2bac e9be
00000010: 8717 583d be30 f6bd 3cb6 b2bd 4824 3a3e
00000020: 812a adbe 1782 f13e 44b8 ccbb 9de5 03bf
00000030: d21b dcbe 62a0 ac3e 3d2c f8bd 4588 10bf
00000040: 3a40 a6be e4c3 da3e 7efe 8dbe 74ad 853e
00000050: 4ec4 b83e 8e95 cb3e 216b 5fbd 52c6 64bd
00000060: 1f47 f93e 1dae f43e eb13 71bc 8034 dcbe
00000070: 3cdf efbe d78d 9ebe 04e1 01bf b4a1 933e
0.38239032 0.4825494 -0.46407118 -0.45639166 0.052756812 -0.120210156 -0.08726165 0.18177903
-0.3382149 0.47169563 -0.006247552 -0.5152224 -0.42989975 0.33716112 -0.12117813 -0.5645793
-0.32470876 0.42727578 -0.27733225 0.26108897 0.3608727 0.3976254 -0.054545525 -0.055853195
0.48687074 0.47789088 -0.0147142215 -0.43008804 -0.46850002 -0.3096759 -0.5073397 0.28834307

module.attn_encoder.encoder.layers.0.sublayer.1.norm.a_2 f4 [32]
00000000: d3db e33f 014a 9d3f 8eec c93f 809a cc3f
00000010: ec4b cc3f 0522 c63f df60 c33f 458e 0c40
00000020: 655b d33f f05c e73f 2654 f73f 42da e43f
00000030: 81bd a93f 40c3 b03f 990b 1240 d165 e23f
00000040: 4c3a d83f a1cb bb3f 8bd4 c33f 0da0 0740
00000050: 6d04 bf3f 5762 b13f a908 b33f c3e9 cc3f
00000060: 981f fb3f 89e1 1840 7bee 1040 fa58 a73f
00000070: c7b8 c73f f43f 8e3f f933 0340 66ea b43f
1.780146 1.2288209 1.5775316 1.598465 1.596067 1.5479132 1.5263938 2.1961834
1.6512266 1.8075237 1.9322555 1.7879107 1.3260957 1.3809586 2.2819579 1.7687322
1.6892791 1.4671518 1.5299238 2.1191437 1.4923226 1.3858136 1.3987018 1.6008838
1.9619017 2.3887656 2.2645557 1.3074028 1.5603265 1.1113267 2.0500472 1.4134033

module.attn_encoder.encoder.layers.0.sublayer.1.norm.b_2 f4 [32]
00000000: cd47 ba3e ee7d ab3e 1ea8 35bf 89db 37bf
00000010: a1f3 e8be 15a1 8b3e ead2 963e 8c9d 383f
00000020: e5d0 45bf 6d5e 8e3f a076 0ebf 46fb 50bf
00000030: 9425 093e e556 2abe 9ccb 2fbf 0db3 36bf
00000040: 12b8 36bf 0c43 0d3e 9d6a 653f 36b9 223f
00000050: 15a5 fc3e 36e9 71be d6f4 963e d384 ca3e
00000060: 7072 6d3f 218b 883f a6bb 26bf c247 adbe
00000070: b87f 20bf 2090 d7be b03a 74bf b115 803e
0.36382905 0.33494514 -0.7095965 -0.7181936 -0.45498374 0.27271333 0.2945779 0.721154
-0.7727187 1.1122566 -0.5564976 -0.8163341 0.13393241 -0.1663471 -0.6867006 -0.7136696
-0.7137462 0.13795108 0.89615804 0.6356386 0.49344698 -0.23624119 0.2948367 0.39554462
0.9275274 1.0667459 -0.6513008 -0.3384381 -0.62694883 -0.42102146 -0.9540205 0.2501655
